backend/deploy/assets/cancer_detection.pth (torch, 336910 bytes, 113 tensors)

weight f4 [8, 3, 3, 3]
0.09467797 0.14856678 -0.08326001 0.06199184 -0.014553713 -0.15433572 -0.09989618 -0.18790528
-0.0977798 -0.07680209 -0.13501808 -0.050641194 -0.11169997 -0.1575686 0.10630753 -0.023664758
-0.14010051 -0.10718514 -0.0282732 -0.17034233 0.041918352 0.09534684 0.18052183 0.0028880993
-0.07060452 0.07877403 0.007368567 0.005843069 0.047750916 -0.12327455 0.14524752 -0.12491139
0.13101958 -0.043454394 0.05277086 0.18672645 0.025437724 0.12788802 -0.17088425 0.09193832
-0.096558556 0.060506772 -0.03037701 0.17164797 -0.0432433 -0.086857 -0.02020968 0.047439527
-0.004330985 -0.088169575 -0.0800444 -0.05814528 -0.03291112 0.18105578 0.07003759 -0.07100677
0.16537406 0.13515009 0.06826467 -0.11200884 0.09216398 -0.1324369 0.021271538 -0.12354078
0.066909105 0.17628205 -0.111349694 0.035615157 0.0966103 0.008960625 0.0076638595 0.08455876
0.15168926 -0.08427095 0.105836086 0.061025698 0.0032984416 0.1358045 -0.14275388 0.062021483
0.11218601 0.13235371 0.057262454 0.19359174 -0.155316 0.033479165 -0.02637794 -0.10027198
-0.024251802 -0.048724588 -0.12680903 0.17479992 0.16770083 0.14245743 0.07446462 0.13050139
-0.11374455 -0.121394485 0.16732539 0.17624179 -0.08289825 0.06259291 0.031449705 0.071342684
0.17816554 0.083950765 0.0008912372 0.14948794 -0.106197566 -0.17885569 0.048852608 -0.068783745
0.1557563 0.058515232 0.08048597 -0.039934695 0.15280613 -0.12891887 0.1902739 -0.12078883
-0.17100601 -0.0766204 0.18860552 0.18319783 0.094647765 -0.021071708 0.019133812 -0.041041907
0.028609812 0.18936683 0.14560218 -0.16351323 -0.06397344 0.16711523 -0.066447295 -0.1856584
-0.133416 -0.15109873 0.113687836 -0.10071795 -0.106076404 0.10006806 0.13397945 0.077039085
-0.0804117 0.11054961 -0.03710192 0.13617621 0.1913446 -0.081740335 0.13775018 0.12978868
0.07415591 -0.12812386 0.0043014856 0.066771224 -0.12656689 -0.10882374 -0.029399639 0.015055686
-0.15258348 -0.09981631 -0.060344815 0.058662355 0.11392205 0.07700239 0.116286255 0.03721996
-0.058532793 0.0034377559 0.05490079 -0.054044094 -0.17292614 0.095645845 -0.019421378 -0.08217078
-0.05542843 0.051904283 0.10635728 -0.13523053 -0.0033770227 0.02879898 0.032090876 0.123421125
-0.07972761 -0.14416523 0.18054786 -0.00029416595 0.079601154 -0.119842924 -0.05927067 0.11905276
-0.18518673 -0.13438673 0.08039251 0.035062455 -0.068099946 -0.00418046 -0.02876648 -0.061039735
0.018843759 -0.06829434 -0.072620176 0.12738593 0.04064942 -0.002919882 -0.15268138 -0.07702986
0.16720527 -0.14790124 -0.015073183 -0.049148504 -0.010942414 0.10675662 0.004625773 -0.11784473
00000000: 86e6 c13d e421 183e 3984 aabd 28eb 7d3d
00000010: b272 6ebc 2f0a 1ebe 5e96 ccbd 3e6a 40be
00000020: c740 c8bd 6a4a 9dbd 2e42 0abe 246d 4fbd
00000030: f4c2 e4bd aa59 21be c3b7 d93d 98dc c1bc
00000040: 8276 0fbe e283 dbbd 339d e7bc 386e 2ebe
00000050: 94b2 2b3d 3445 c33d b7da 383e 4446 3d3b
00000060: 1a99 90bd 4754 a13d 0574 f13b 3777 bf3b
00000070: 7796 433d 5e77 fcbd c4bb 143e 8bd1 ffbd
00000080: ff29 063e 3cfd 31bd 4226 583d 3835 3f3e
00000090: c662 d03c 14f5 023e 48fc 2ebe 284a bc3d
000000a0: 7ec0 c5bd f3d5 773d 35d9 f8bc 7cc4 2f3e
000000b0: e31f 31bd 15e2 b1bd c58e a5bc f34f 423d
000000c0: efea 8dbb 4092 b4bd 52ee a3bd bf29 6ebd
000000d0: d0cd 06bd b066 393e de6f 8f3d ff6b 91bd
000000e0: d157 293e c964 0a3e 59ce 8b3d e464 e5bd
000000f0: 78c0 bc3d 8a9d 07be a641 ae3c f302 fdbd
00000100: a407 893d 4883 343e 4f0b e4bd 33e1 113d
00000110: 9fdb c53d 96cf 123c 1d21 fb3b 252d ad3d
00000120: 6e54 1b3e 3f96 acbd 97c0 d83d 15f6 793d
00000130: ab2a 583b 5610 0b3e 132e 12be 3d0a 7e3d
00000140: c7c1 e53d bb87 073e 098c 6a3d ea3c 463e
00000150: 280b 1fbe 7321 093d 8d16 d8bc 655b cdbd
00000160: b7ab c6bc 6f93 47bd 3ada 01be c0fe 323e
00000170: c4b9 2b3e 5ce0 113e e880 983d 28a2 053e
00000180: e7f2 e8bd ac9d f8bd 5957 2b3e ba78 343e
00000190: 8fc6 a9bd b630 803d 68d1 003d 1d1c 923d
000001a0: 0771 363e 61ee ab3d eba1 693a 5e13 193e
000001b0: 1c7e d9bd f225 37be ac19 483d 7ede 8cbd
000001c0: 947e 1f3e abad 6f3d d4d5 a43d 9092 23bd
000001d0: 3679 1c3e 4f03 04be 29d7 423e 2260 f7bd
000001e0: 331c 2fbe 28eb 9cbd ce21 413e 3698 3b3e
000001f0: b0d6 c13d 939e acbc 83be 9c3c 8f1b 28bd
00000200: 205f ea3c 61e9 413e bd18 153e 0370 27be
00000210: 8204 83bd 4120 2b3e 8515 88bd 3c1d 3ebe
00000220: 349e 08be a0b9 1abe 2bd5 e83d 3645 cebd
00000230: 963e d9bd 7cf0 cc3d e931 093e abc6 9d3d
00000240: e4ae a4bd d567 e23d 2ff8 17bd c771 0b3e
00000250: d7ef 433e 7a67 a7bd 620e 0d3e 53e7 043e
00000260: 0edf 973d e732 03be 7af3 8c3b 5abf 883d
00000270: c09a 01be fbde debd 83d7 f0bc 20ac 763c
00000280: d83e 1cbe 7e6c ccbd 202c 77bd f047 703d
00000290: f74f e93d 6eb3 9d3d 7d27 ee3d f573 183d
000002a0: 15c0 6fbd f94b 613b a7df 603d 575d 5dbd
000002b0: 8d13 31be f8e1 c33d 9519 9fbc 2749 a8bd
000002c0: ec08 63bd 9699 543d d8d1 d93d df79 0abe
000002d0: 0a51 5dbb d7eb eb3c b971 033d 37c4 fc3d
000002e0: 3b48 a3bd 0da0 13be 8ae1 383e 493a 9ab9
000002f0: ee05 a33d 3570 f5bd cdc5 72bd efd1 f33d
00000300: 97a1 3dbe ad9c 09be d4a4 a43d a69d 0f3d
00000310: fc77 8bbd 3dfc 88bb aea7 ebbc cd04 7abd
00000320: 3a5e 9a3c e7dd 8bbd e3b9 94bd 7571 023e
00000330: 0280 263d 7e5b 3fbb 8258 1cbe d5c1 9dbd
00000340: dc37 2b3e 6c73 17be 83f5 76bc f14f 49bd
00000350: d047 33bc 37a3 da3d cc93 973b 9458 f1bd

weight f4 [8]
1.0017488 1.0033414 0.9968416 0.99968266 0.99899536 1.0003542 1.000294 1.0026201
00000000: 4e39 803f 7e6d 803f 0331 7f3f 34eb 7f3f
00000010: 29be 7f3f 9b0b 803f a209 803f db55 803f

bias f4 [8]
-0.0025307385 0.0021191775 -0.001635154 -0.0017905773 0.00091144897 -0.0008686993 -0.0012390987 0.004179112
00000000: bfda 25bb e6e1 0a3b aa52 d6ba ceb1 eaba
00000010: 4eee 6e3a 6cb9 63ba 4169 a2ba eff0 883b

running_mean f4 [8]
-0.85267496 0.1935986 1.4924868 2.1026452 0.7811979 -1.0636921 0.66470677 -1.1972799
00000000: e848 5abf b63e 463e cf09 bf3f bd91 0640
00000010: 96fc 473f 1027 88bf 392a 2a3f 7840 99bf

running_var f4 [8]
0.4696083 0.06924115 0.18370451 0.38416657 0.08605722 0.10956529 0.017811049 0.20150062
00000000: 8070 f03e 4ece 8d3d 091d 3c3e 7bb1 c43e
00000010: c53e b03d c463 e03d 7ae8 913c 2e56 4e3e

weight f4 [8, 8, 3, 3]
0.08901811 -0.0124583645 0.10657517 -0.025166485 0.09625449 0.011708577 -0.05907909 0.01765329
-0.03251936 -0.010318267 -0.0575026 -0.055597886 0.03327296 0.09778724 0.033124115 0.028690495
-0.009660313 0.09677266 0.055312146 0.074273 -0.12195695 -0.06861553 -0.09795712 -0.0055896584
0.094822444 0.025843583 -0.048475847 0.047384616 0.022211876 0.0524798 -0.08199675 0.00024218908
0.06381992 -0.05382633 0.11128891 -0.0682249 0.04188639 -0.04378083 0.045823712 -0.10674029
0.10070066 0.11729436 0.07254054 0.057551663 0.055047665 -0.051964816 -0.08225523 -0.042955384
0.092786625 0.107419625 0.0949636 0.061949167 -0.11129935 0.023452431 0.031647112 -0.08051115
0.005922054 -0.098022684 0.051270176 0.064070195 -0.05570093 0.11066193 -0.059102878 -0.04862867
0.09763079 -0.085964926 -0.05721935 0.090876795 0.100266345 -0.096921064 -0.022798648 0.063568965
-0.007979193 -0.025870321 -0.0019309182 0.10009435 -0.03257331 -0.118068 -0.03994753 -0.023350228
-0.07848819 0.052492034 0.111158155 -0.08267936 -0.0876539 0.08110894 -0.10158698 -0.02572639
0.014001358 0.021897031 -0.013812267 -0.06789111 0.072471015 -0.093996756 -0.03941226 0.06400956
-0.106680706 -0.035221662 0.06533604 -0.09700111 0.024012093 0.028890397 0.09462196 -0.016918086
-0.10069168 0.042814806 -0.009918613 -0.068795964 0.08512617 0.10715646 -0.0343255 -0.0051734834
0.11018626 -0.028651109 -0.07641198 0.044801235 -0.07718948 0.010859228 0.02412544 -0.104148574
0.11188594 0.030036785 0.10502035 0.05376923 0.03510907 -0.08503019 -0.085351236 0.0952103
-0.041908763 0.0959394 0.04037431 -0.043595213 -0.08403458 0.08713018 -0.014724891 0.09287549
-0.04885284 -0.019738158 -0.0768492 -0.11647457 -0.008946696 -0.05088471 -0.11428943 -0.011191089
0.083394326 0.008334435 -0.067029744 0.08168831 0.03535783 0.009060513 0.07000779 0.10037852
0.006992111 -0.10172282 0.035124492 0.06289716 0.07887255 0.10931943 -0.0050979555 -0.05574642
-0.0056929425 0.019472903 -0.050136015 -0.027373781 -0.03817626 0.029823191 -0.10047494 -0.07930939
-0.008741548 -0.04310087 -0.035597447 0.038839776 0.031499643 -0.034344338 0.011640666 -0.060326338
-0.08706932 -0.09815076 -0.042624056 -0.023912981 -0.09505616 0.046453707 -0.10224124 0.044043787
-0.06122109 -0.031356312 0.12022853 0.05390402 -0.015683508 0.04139764 0.02941997 -0.08656824
0.0076547875 -0.046903234 -0.09916531 0.10560037 -0.05580968 0.036489353 -0.10755696 0.012602379
0.108240925 0.1053467 0.07887134 -0.013282913 0.065043755 -0.05179815 0.09451163 0.07292814
0.08420213 -0.00695265 0.08878865 -0.029076738 0.031703714 0.07132106 -0.056425568 -0.01617711
-0.02035344 0.111849055 -0.096153 -0.021593563 0.06382078 0.0015571694 0.11214152 -0.031211637
0.082386054 0.11502354 -0.0026263627 -0.066699296 -0.102652505 0.0993414 0.08309459 -0.015698403
0.04933241 -0.08451845 0.083197184 0.103016555 0.042141397 -0.0068393033 -0.046017442 -0.070997
0.11481391 0.016799776 0.054373764 -0.10553288 -0.07925573 0.084394 -0.019579906 0.05314132
0.0013127414 0.02103946 0.080072075 -0.056926783 -0.11167213 0.04103657 0.0871989 -0.08556508
00000000: 204f b63d 2b1e 4cbc 1544 da3d f229 cebc
00000010: 1321 c53d 55d5 3f3c eafc 71bd a29d 903c
00000020: 0533 05bd f30d 29bc d987 6bbd 9cba 63bd
00000030: 3a49 083d ad44 c83d 27ad 073d 5408 eb3c
00000040: 4a46 1ebc bf30 c63d fd8e 623d 711c 983d
00000050: 91c4 f9bd 4d86 8cbd be9d c8bd 7429 b7bb
00000060: 4532 c23d ecb5 d33c 9c8e 46bd 5f16 423d
00000070: aef5 b53c 0ff5 563d e9ed a7bd 23f4 7d39
00000080: 05b4 823d ff78 5cbd 71eb e33d 7fb9 8bbd
00000090: 1091 2b3d 8753 33bd a5b1 3b3d a79a dabd
000000a0: 263c ce3d 0738 f03d 2290 943d 4bbb 6b3d
000000b0: a979 613d 0fd9 54bd 6e75 a8bd fcf1 2fbd
000000c0: ea06 be3d d2fe db3d 477c c23d 69be 7d3d
000000d0: eaf0 e3bd 501f c03c 67a0 013d 08e3 a4bd
000000e0: ca0d c23b 1ec0 c8bd ad00 523d 3c37 833d
000000f0: a926 64bd b9a2 e23d dc15 72bd db2e 47bd
00000100: a7f2 c73d 610e b0bd d65e 6abd 9d1d ba3d
00000110: 7158 cd3d 8d7e c6bd 3bc4 babc 7230 823d
00000120: 29bb 02bc ffed d3bc dd16 fdba 44fe cc3d
00000130: 976b 05bd a3cd f1bd 05a0 23bd fa48 bfbc
00000140: 6bbe a0bd e301 573d e3a6 e33d cc53 a9bd
00000150: e383 b3bd 721c a63d d60c d0bd 26c0 d2bc
00000160: f465 653c 6761 b33c d94c 62bc 7f0a 8bbd
00000170: af6b 943d 5f81 c0bd c06e 21bd 7217 833d
00000180: 6a7b dabd 9744 10bd e7ce 853d 85a8 c6bd
00000190: 02b5 c43c 8eab ec3c 28c9 c13d cc97 8abc
000001a0: 7137 cebd 945e 2f3d ae81 22bc e6e4 8cbd
000001b0: a156 ae3d d974 db3d e598 0cbd 5386 a9bb
000001c0: 55a9 e13d bbb5 eabc e27d 9cbd 8081 373d
000001d0: 8515 9ebd e7ea 313c b7a2 c53c d94b d5bd
000001e0: 7524 e53d b40f f63c e914 d73d 203d 5c3d
000001f0: 87ce 0f3d 4f24 aebd a1cc aebd 9efd c23d
00000200: 86a8 2bbd e07b c43d 885f 253d e590 32bd
00000210: 521a acbd 4f71 b23d ab40 71bc 8135 be3d
00000220: ea19 48bd ebb1 a1bc 1d63 9dbd 388a eebd
00000230: 2a95 12bc 7c6c 50bd 9410 eabd d45a 37bc
00000240: a5ca aa3d 278d 083c e446 89bd 334c a73d
00000250: 5fd3 103d 8c72 143c 3f60 8f3d 4193 cd3d
00000260: 141e e53b 0e54 d0bd b3de 0f3d 3ad0 803d
00000270: ee87 a13d dee2 df3d c00c a7bb 5c56 64bd
00000280: dd8b babb a385 9f3c 6c5b 4dbd fb3e e0bc
00000290: b65e 1cbd c44f f43c cec5 cdbd f66c a2bd
000002a0: b638 0fbc 8a8a 30bd a1ce 11bd 7516 1f3d
000002b0: c505 013d a6ac 0cbd 7eb8 3e3c c018 77bd
000002c0: 6651 b2bd 4403 c9bd 9096 2ebd 28e5 c3bc
000002d0: ceac c2bd 3e46 3e3d db63 d1bd 4267 343d
000002e0: f7c2 7abd 7a6f 00bd 603a f63d 76ca 5c3d
000002f0: b37a 80bc 9290 293d 2602 f13c b04a b1bd
00000300: 03d5 fa3b 9b1d 40bd 2f17 cbbd 0245 d83d
00000310: b198 64bd dc75 153d d346 dcbd 357a 4e3c
00000320: 6bad dd3d 03c0 d73d 4c87 a13d 93a0 59bc
00000330: a935 853d 4c2a 54bd 508f c13d 595b 953d
00000340: 2b72 ac3d 0ed3 e3bb d3d6 b53d 5732 eebc
00000350: c1db 013d c710 923d 7f1e 67bd dc85 84bc
00000360: 42bc a6bc 1e11 e53d ddeb c4bd fce4 b0bc
00000370: 78b4 823d ef19 cc3a 74aa e53d 8caf ffbc
00000380: 05ba a83d 7691 eb3d 0e1f 2cbb a499 88bd
00000390: 7a3b d2bd 8173 cb3d 7f2d aa3d f099 80bc
000003a0: c810 4a3d 0218 adbd 4963 aa3d 58fa d23d
000003b0: 759c 2c3d 3c1c e0bb c97c 3cbd e066 91bd
000003c0: 8e23 eb3d af9f 893c 06b7 5e3d 9f21 d8bd
000003d0: d450 a2bd c3d6 ac3d 0a66 a0bc b6aa 593d
000003e0: 4b10 ac3a f25a ac3c d4fc a33d 0f2c 69bd
000003f0: 5cb4 e4bd f615 283d 5695 b23d bf3c afbd

weight f4 [8]
1.002235 0.9999879 1.0003936 1.0043298 0.99817914 1.0013291 1.00037 0.9982765
00000000: 3d49 803f 35ff 7f3f e60c 803f e18d 803f
00000010: ab88 7f3f 8d2b 803f 200c 803f 0c8f 7f3f

bias f4 [8]
0.0014477981 -0.0015621952 0.0020936779 0.00510582 -0.003769001 -0.0005232542 -0.0028739392 0.0010427432
00000000: 0bc4 bd3a 93c2 ccba 1636 093b b94e a73b
00000010: 5801 77bb ff2a 09ba b358 3cbb a8ac 883a

running_mean f4 [8]
0.3500279 -0.19026163 -0.0077115553 0.1658452 0.20911603 -0.14902343 0.14801812 0.24806386
00000000: db36 b33e f2d3 42be 37b1 fcbb 53d3 293e
00000010: 8322 563e 9999 18be 1092 173e 7404 7e3e

running_var f4 [8]
0.10973827 0.100393414 0.37822267 0.04618141 0.32192943 0.18707098 0.0793327 0.26907933
00000000: 75be e03d 109b cd3d 67a6 c13e b828 3d3d
00000010: efd3 a43e 898f 3f3e 2f79 a23d c4c4 893e

weight f4 [8, 8, 3, 3]
0.045350637 -0.038972393 -0.058302734 0.025739677 0.087647155 -0.03986864 0.011839999 -0.09364118
0.09568171 -0.04704394 -0.026315002 0.005492624 0.07904462 -0.05688599 -0.07340486 -0.0041879294
0.064346716 -0.009995026 0.055158302 -0.025265323 0.03673895 0.09054964 -0.06968502 0.02822049
0.063114025 -0.098058924 -0.087659545 0.09140724 0.017324613 -0.035517078 -0.038827028 -0.109486915
0.05761264 -0.064805664 -0.022068407 -0.07108359 0.020998962 0.034463093 -0.08262128 0.099297404
0.05929233 0.047048386 -0.042107567 -0.0977073 0.042606253 0.05963992 -0.10327768 0.096117206
0.050546743 0.063799754 0.029614238 -0.056056984 0.064600095 -0.008857105 -0.0620267 -0.039369732
-0.044395108 -0.01627709 -0.06717188 -0.117019504 -0.0485207 0.017394291 -0.06845275 0.04852809
-0.07921399 -0.09817237 -0.03146467 -0.10061946 0.08480169 0.1097234 -0.011615259 -0.090553746
0.038282696 0.06723901 0.061323028 -0.095662266 -0.06843204 0.09744148 -0.081102595 -0.045206793
0.11164229 0.011487197 -0.11639801 0.054228403 -0.10449577 -0.02997034 0.014158861 -0.029085409
0.043276977 0.067077175 -0.060315214 0.07691005 0.046103787 0.003897247 -0.04131874 -0.081665315
0.082152896 -0.093076535 0.00063648436 0.0011078315 -0.03170207 0.044528432 0.043634854 -0.04796176
-0.016938476 0.034759887 0.00016351412 0.09663164 -0.0045849974 -0.049563874 -0.0621024 0.07003269
-0.11811329 -0.1126326 -0.0003978643 0.078354344 -0.11413724 0.043926172 -0.06328313 0.0052420027
-0.060975913 -0.09898941 0.064396895 -0.096876316 -0.107443765 -0.048590288 -0.072760396 -0.08365269
-0.023499005 0.0929564 0.08139639 0.067597926 0.016514076 0.08471502 -0.020418823 -0.084047414
0.069262125 0.078092515 -0.07896285 0.06340135 -0.1133862 0.0023379049 0.0674773 -0.049563337
-0.045745246 -0.08712783 -0.018033616 -0.0639477 -0.108400255 0.011789946 0.049985632 -0.10521978
-0.06977379 -0.021919848 0.07376048 0.10870776 -0.058774006 0.10881426 0.05063046 0.06959253
-0.01324473 0.015479512 0.0020646655 -0.074194245 -0.09973281 -0.044196673 0.004381219 0.030434381
-0.055364996 -0.013153197 -0.04851543 0.10483195 0.09834643 0.100204125 -0.093862 -0.07677566
-0.062889345 0.04226494 -0.006020335 -0.0924472 -0.036523074 0.054660648 0.111953855 -0.05650067
-0.11159963 -0.04496392 0.053743348 -0.108972386 0.092034385 0.09465319 -0.09617692 -0.0567518
-0.0461111 -0.085490346 0.004086136 -0.09234261 -0.01601026 -0.11342319 0.084177494 0.09114174
0.08206512 -0.035996974 0.1027928 0.050148837 0.117867894 0.10653304 0.06797704 -0.103988215
-0.011905325 0.07010319 0.04610935 0.095087186 0.029567095 -0.031459793 -0.03998621 -0.09940426
-0.07223733 0.09319685 0.008267977 -0.03300273 0.002092292 -0.11392318 0.06840771 0.03654463
0.077524744 0.070269644 -0.07395269 -0.10692659 -0.08293911 -0.026643286 -0.10208696 -0.07982935
-0.061974537 0.041744865 0.11073981 0.048095584 -0.06507559 -0.09120963 0.0684779 0.059935696
-0.1014765 0.033088256 -0.019904336 0.09309189 0.1077621 0.061070763 0.036371946 -0.09353875
-0.051145338 0.075158484 0.03984532 0.030427378 -0.101561375 -0.07732325 0.04633821 -0.011320346
00000000: 97c1 393d 84a1 1fbd d9ce 6ebd 04dc d23c
00000010: 5a80 b33d 4d4d 23bd 8efc 413c f2c6 bfbd
00000020: c6f4 c33d 25b1 40bd 8f92 d7bc 78fb b33b
00000030: 25e2 a13d 4901 69bd 4a55 96bd e63a 89bb
00000040: 36c8 833d 2dc2 23bc aced 613d 39f9 cebc
00000050: 957b 163d 1772 b93d 05b7 8ebd a82e e73c
00000060: ed41 813d 1ed3 c8bd d986 b3bd b833 bb3d
00000070: 59ec 8d3c 5b7a 11bd 1709 1fbd ad3a e0bd
00000080: 3bfb 6b3d d5b8 84bd cec8 b4bc 4694 91bd
00000090: 0406 ac3c 2c29 0d3d 5835 a9bd 705c cb3d
000000a0: 84dc 723d cfb5 403d fc78 2cbd c41a c8bd
000000b0: e583 2e3d fd48 743d 4083 d3bd 19d9 c43d
000000c0: 1a0a 4f3d 72a9 823d 8f99 f23c 029c 65bd
000000d0: 0e4d 843d 641d 11bc b50f 7ebd 2842 21bd
000000e0: a5d7 35bd 8857 85bc 6991 89bd eca7 efbd
000000f0: a4bd 46bd 797e 8e3c f530 8cbd 64c5 463d
00000100: f23a a2bd 980e c9bd 19e1 00bd 9311 cebd
00000110: 82ac ad3d a9b6 e03d ed4d 3ebc 3e74 b9bd
00000120: 51ce 1c3d 9bb4 893d db2d 7b3d 94ea c3bd
00000130: 1926 8cbd 668f c73d 1e19 a6bd c22a 39bd
00000140: b7a4 e43d cc34 3c3c 1462 eebd 9a1e 5e3d
00000150: e101 d6bd 5c84 f5bc 91fa 673c 8644 eebc
00000160: 3343 313d c25f 893d 160d 77bd 0483 9d3d
00000170: 53d7 3c3d f468 7f3b d73d 29bd 2540 a7bd
00000180: c73f a83d e99e bebd bed9 263a a834 913a
00000190: 08da 01bd 7263 363d 76ba 323d 8d73 44bd
000001a0: 8fc2 8abc 6260 0e3d fd74 2b39 cfe6 c53d
000001b0: bf3d 96bb 7d03 4bbd 165f 7ebd 4d6d 8f3d
000001c0: 61e5 f1bd ecab e6bd 7198 d0b9 3e78 a03d
000001d0: c9c0 e9bd eeeb 333d 969a 81bd 1bc5 ab3b
000001e0: e1c1 79bd f6ba cabd 85e2 833d 1767 c6bd
000001f0: 7a0b dcbd 9c06 47bd 6703 95bd 1a52 abbd
00000200: fc80 c0bc ed5f be3d 27b3 a63d c870 8a3d
00000210: 8748 873c 127f ad3d 6045 a7bc 0d21 acbd
00000220: 4dd9 8d3d f8ee 9f3d 46b7 a1bd 91d8 813d
00000230: 0637 e8bd 8937 193b 8a31 8a3d ed02 4bbd
00000240: 5e5f 3bbd 1370 b2bd 3cbb 93bc 03f7 82bd
00000250: f400 debd 9e2a 413c bcbd 4c3d 787d d7bd
00000260: 90e5 8ebd 4191 b3bc bc0f 973d 2da2 de3d
00000270: 03bd 70bd 03da de3d e361 4f3d 8786 8e3d
00000280: 6d00 59bc c79d 7d3c 574f 073b 27f3 97bd
00000290: b740 ccbd 9207 35bd 5490 8f3b 8651 f93c
000002a0: 68c6 62bd 8280 57bc 1eb8 46bd 22b2 d63d
000002b0: da69 c93d d237 cd3d b83a c0bd 8f3c 9dbd
000002c0: 21cc 80bd 001e 2d3d 3b46 c5bb f554 bdbd
000002d0: 3899 15bd d8e3 5f3d 1048 e53d 3f6d 67bd
000002e0: 598e e4bd 162c 38bd fc21 5c3d ea2c dfbd
000002f0: 867c bc3d 88d9 c13d 68f8 c4bd 9374 68bd
00000300: fede 3cbd 9015 afbd fee4 853b 1f1e bdbd
00000310: f327 83bc 6b4a e8bd 4065 ac3d 85a8 ba3d
00000320: c211 a83d 9071 13bd 0885 d23d de68 4d3d
00000330: b964 f13d ff2d da3d 8c37 8b3d c6f7 d4bd
00000340: 8d0e 43bc 4392 8f3d 28dd 3c3d 12bd c23d
00000350: b136 f23c fcdb 00bd 95c8 23bd 7694 cbbd
00000360: 2af1 93bd fddd be3d 6976 073c df2d 07bd
00000370: d61e 093b 8e50 e9bd 5719 8c3d d2af 153d
00000380: 4bc5 9e3d 88e9 8f3d 8274 97bd 54fc dabd
00000390: fbdb a9bd 0543 dabc f812 d1bd 927d a3bd
000003a0: 03d9 7dbd aafc 2a3d 8ecb e23d e0ff 443d
000003b0: 5a46 85bd 1dcc babd 243e 8c3d 227f 753d
000003c0: e9d2 cfbd 8d87 073d 6b0e a3bc f6a6 be3d
000003d0: 60b2 dc3d 5625 7a3d c0fa 143d 3f91 bfbd
000003e0: c67d 51bd b1ec 993d d934 233d d642 f93c
000003f0: 69ff cfbd a75b 9ebd 23cd 3d3d f978 39bc

weight f4 [8]
1.0039103 0.9970812 1.0023087 1.0026426 1.0029573 1.0031993 1.0022315 1.0021764
00000000: 2280 803f b740 7f3f a74b 803f 9856 803f
00000010: e860 803f d668 803f 1f49 803f 5147 803f

bias f4 [8]
0.0017447505 0.00076446275 -0.00033385566 0.0050865095 0.0005581309 0.0029497007 0.0023944026 -0.0016528381
00000000: 1db0 e43a 3a66 483a 5909 afb9 bcac a63b
00000010: 884f 123a c44f 413b 69eb 1c3b 0ba4 d8ba

running_mean f4 [8]
-0.30928132 -0.18625419 -0.10226485 -0.10491493 0.04464736 0.06334521 0.0708492 -0.18880627
00000000: 1f5a 9ebe 6bb9 3ebe 3c70 d1bd a4dd d6bd
00000010: 26e0 363d 22bb 813d 6319 913d 6e56 41be

running_var f4 [8]
0.046047762 0.108011454 0.20869185 0.08492596 0.17815918 0.028846724 0.07859177 0.12625605
00000000: 949c 3c3d 1c35 dd3d 51b3 553e a9ed ad3d
00000010: 5c6f 363e f74f ec3c b9f4 a03d 4449 013e

weight f4 [8, 8, 3, 3]
0.07011542 -0.10648292 0.07767274 0.08425732 -0.04075697 -0.107039146 -0.08337004 -0.0831446
0.11778597 -0.105419844 0.060106587 -0.027623594 -0.034859613 0.11381569 -0.066413105 0.09039057
0.07354169 0.11085204 -0.08668702 -0.11067255 -0.044704203 -0.025647705 0.03869856 -0.041403648
0.002688296 -0.004526841 0.10582593 0.10356276 0.048221365 -0.060676333 -0.0060083535 -0.09531862
-0.093379445 0.066501506 -0.094005235 0.07946947 -0.06277711 0.09737848 0.014904836 0.098240346
0.0012710008 0.0012961172 0.007979447 0.0846668 0.014320613 0.03185898 0.0062374873 0.074223995
0.03909922 -0.011799137 0.060076028 0.008234896 0.09571519 -0.013455228 -0.0012747545 0.10431469
0.07767254 -0.113109745 0.061581336 -0.10482194 -0.113830104 0.011080748 0.052251045 0.0023509422
0.005312754 0.06435751 -0.10053257 0.035430275 0.03035186 0.010866582 -0.06428025 0.120320216
-0.019317605 -0.07492127 0.06329415 -0.012721107 -0.027118318 -0.10756463 -0.0983309 0.08425295
0.052254763 -0.09758762 -0.019005187 -0.11749969 0.00086893956 0.0006923792 0.054781266 -0.09457567
0.02832236 0.07839228 -0.10169445 0.037744455 0.04400155 -0.061922703 0.003951998 0.06289211
-0.11542335 0.04766937 0.01565641 0.0826587 -0.053988393 -0.07758877 0.0836071 0.100370795
-0.08820097 -0.095566444 0.05347283 -0.110405296 -0.045586493 -0.041978862 0.026859745 -0.104032375
0.08809978 0.09335988 0.024071343 0.11606463 -0.032941833 -0.046600733 -0.055289563 -0.091119304
0.03213977 0.084644675 0.012988948 0.052962672 0.11051291 -0.10175775 0.010292769 0.057991423
-0.1000709 0.022154238 0.07906177 0.09586258 -0.041103255 -0.04975095 -0.07255685 0.096892424
0.024345415 -0.12111882 -0.038538378 0.09035049 0.06599602 -0.02598158 -0.03909704 -0.03435267
0.10759684 0.034433562 -0.080675036 0.08652576 -0.06681844 -0.090564854 0.07846443 -0.08795281
0.030494051 0.11806594 -0.06531677 -0.052571036 -0.08721738 -0.063851446 0.11765229 -0.056033418
0.11762738 0.084580325 0.0062609436 -0.010609301 0.015189533 -0.10344135 0.096855946 0.10135488
0.11446042 0.050069515 -0.06947002 -0.10367868 0.002924586 -0.029027676 -0.03673418 0.06241921
-0.05975156 -0.030445434 -0.061168298 -0.11192034 0.102692924 -0.08171062 0.117807806 -0.09757203
0.10485933 0.00026862355 -0.11296518 -0.112886846 -0.091559716 0.10892704 0.012064235 0.07179033
0.014022824 -0.053387526 0.08433905 -0.059846133 0.004738911 0.06607198 -0.0023079566 0.06678433
0.11009354 -0.09031184 0.07575699 0.0705521 0.06076151 0.057681996 0.07223641 -0.06738427
-0.048398115 0.08249344 0.059374467 0.072745554 0.0027774845 -0.055372782 -0.077815466 -0.011257354
-0.01035923 -0.06252419 0.065436766 0.12058526 0.012931867 -0.052441545 0.054903448 0.0020891097
0.023768857 0.03204541 0.096443444 -0.095690496 -0.10277028 -0.0020693964 0.00031401677 0.017056597
-0.10014619 0.108173676 -0.06349079 0.019690963 -0.06279954 0.05598492 -0.04340428 0.07356585
-0.048261017 -0.026655199 0.10814855 -0.10035958 0.006084145 0.060446534 -0.093058676 0.019879946
-0.1048979 0.12780908 -0.045851603 0.07471403 -0.11366606 0.114428446 0.096051924 -0.032487333
00000000: ac98 8f3d b813 dabd e312 9f3d 1a8f ac3d
00000010: c8f0 26bd 5737 dbbd e9bd aabd b747 aabd
00000020: c539 f13d 5ce6 d7bd 5332 763d e04a e2bc
00000030: f4c8 0ebd 3318 e93d 9803 88bd b11e b93d
00000040: 079d 963d 6506 e33d f788 b1bd 4aa8 e2bd
00000050: c11b 37bd 231b d2bc 6282 1e3d df96 29bd
00000060: 1f2e 303b e555 94bb 44bb d83d b618 d43d
00000070: c483 453d bf87 78bd b9e1 c4bb 6936 c3bd
00000080: b93d bfbd f131 883d d185 c0bd e4c0 a23d
00000090: 4991 80bd 5e6e c73d 6a33 743c 3c32 c93d
000000a0: b697 a63a 7ae2 a93a 3abc 023c ca65 ad3d
000000b0: 01a1 6a3c 907e 023d d663 cc3b c002 983d
000000c0: 8126 203d 2b51 41bc 4812 763d a8eb 063c
000000d0: 5306 c43d 5173 5cbc aa15 a7ba f1a2 d53d
000000e0: c812 9f3d 15a6 e7bd b63c 7c3d e3ac d6bd
000000f0: c21f e9bd 078c 353c 3105 563d 4412 1a3b
00000100: 9c16 ae3b dfcd 833d 05e4 cdbd 561f 113d
00000110: 77a4 f83c c009 323c 5da5 83bd 726a f63d
00000120: f43f 9ebc 5370 99bd 5da0 813d 316c 50bc
00000130: 3c27 debc d84a dcbd b661 c9bd d08c ac3d
00000140: 1709 563d 05dc c7bd c4b0 9bbc ada3 f0bd
00000150: 8cc9 633a c880 353a 5262 603d e4b0 c1bd
00000160: 4b04 e83c 228c a03d 2e45 d0bd ee99 1a3d
00000170: f83a 343d a9a2 7dbd c37f 813b 94cd 803d
00000180: 1463 ecbd f540 433d df41 803c f748 a93d
00000190: ef22 5dbd dce6 9ebd 333a ab3d 348f cd3d
000001a0: b6a2 b4bd 57b8 c3bd 5406 5b3d 2c1c e2bd
000001b0: e7b8 3abd 07f2 2bbd f808 dc3c ed0e d5bd
000001c0: a86d b43d 7733 bf3d 4431 c53c 4bb3 ed3d
000001d0: 04ee 06bd 69e0 3ebd 4f77 62bd c29c babd
000001e0: fea4 033d 305a ad3d 99cf 543c 63ef 583d
000001f0: 9854 e23d 5e66 d0bd 01a3 283c 6a88 6d3d
00000200: f9f1 ccbd ce7c b53c 23eb a13d 9a53 c43d
00000210: e35b 28bd a7c7 4bbd b098 94bd 896f c63d
00000220: 0970 c73c 250d f8bd 6bda 1dbd ad09 b93d
00000230: ec28 873d 53d7 d4bc 3824 20bd 63b5 0cbd
00000240: bb5b dc3d 350a 0d3d f438 a5bd 6b34 b13d
00000250: 1bd8 88bd 117a b9bd f6b1 a03d 9a20 b4bd
00000260: a9ce f93c 8ecc f13d ccc4 85bd ba54 57bd
00000270: 079f b2bd 8cc4 82bd aff3 f03d 4c83 65bd
00000280: a0e6 f03d 7338 ad3d 9a28 cd3b a2d2 2dbc
00000290: 85dd 783c 0fd9 d3bd 695c c63d 2693 cf3d
000002a0: 3a6a ea3d b115 4d3d 4c46 8ebd 7d55 d4bd
000002b0: 69aa 3f3b 73cb edbc 9476 16bd 49ab 7f3d
000002c0: 0dbe 74bd b468 f9bc 9c8b 7abd 7e36 e5bd
000002d0: ab50 d23d e657 a7bd 3845 f13d d8d3 c7bd
000002e0: 7dc0 d63d 0bd6 8c39 4a5a e7bd 3831 e7bd
000002f0: a983 bbbd 2415 df3d 12a9 453c cf06 933d
00000300: fdbf 653c e1ac 5abd f4b9 ac3d 3821 75bd
00000310: de48 9b3b bf50 873d 1641 17bb 39c6 883d
00000320: b978 e13d 6af5 b8bd 7b26 9b3d 9f7d 903d
00000330: 10e1 783d f543 6c3d aff0 933d c400 8abd
00000340: 1a3d 46bd 52f2 a83d a432 733d 9ffb 943d
00000350: 7506 363b 92ce 62bd b75d 9fbd c470 38bc
00000360: c3b9 29bc af0c 80bd b603 863d 68f5 f63d
00000370: 2ee0 533c f2cc 56bd 70e2 603d 72e9 083b
00000380: e8b6 c23c 0c42 033d 2484 c53d 61f9 c3bd
00000390: 3979 d2bd b69e 07bb 9ea2 a439 47ba 8b3c
000003a0: 7219 cdbd 298a dd3d 7607 82bd f14e a13c
000003b0: 0c9d 80bd 7250 653d b0c8 31bd b1a9 963d
000003c0: 58ad 45bd 015c dabc fd7c dd3d 5389 cdbd
000003d0: 825d c73b c996 773d 8c95 bebd 45db a23c
000003e0: b6d4 d6bd 62e0 023e e4ce 3bbd ab03 993d
000003f0: c0c9 e8bd 7659 ea3d dfb6 c43d 7011 05bd

weight f4 [8]
0.9964909 1.0037417 0.99774605 1.0034182 1.0008761 0.99765456 1.0021697 0.99870616
00000000: 071a 7f3f 9c7a 803f 496c 7f3f 0270 803f
00000010: b51c 803f 4a66 7f3f 1947 803f 35ab 7f3f

bias f4 [8]
0.0017447505 0.00076446275 -0.00033385566 0.0050865095 0.0005581309 0.0029497007 0.0023944026 -0.0016528381
00000000: 1db0 e43a 3a66 483a 5909 afb9 bcac a63b
00000010: 884f 123a c44f 413b 69eb 1c3b 0ba4 d8ba

running_mean f4 [8]
0.11956754 -0.095399104 0.15699305 0.018877937 -0.09415468 -0.04756963 -0.20019792 -0.022860957
00000000: d4df f43d 9b60 c3bd c9c2 203e e7a5 9a3c
00000010: 2bd4 c0bd 5fd8 42bd af00 4dbe e746 bbbc

running_var f4 [8]
0.07544195 0.051791634 0.22272353 0.10675342 0.5132451 0.19706243 0.05728015 0.067352645
00000000: 4f81 9a3d 7723 543d a311 643e 89a1 da3d
00000010: 0864 033f bcca 493e 979e 6a3d 2ff0 893d

weight f4 [8, 8, 3, 3]
-0.060538676 -0.0860193 -0.09634435 -0.0077018174 -0.062134977 0.06041524 -0.02064709 0.095789775
-0.053294834 -0.04362173 -0.03481215 0.02841196 0.07313046 0.09920596 -0.10950718 0.0055417283
-0.056170564 0.019770324 0.020527096 0.07420798 -0.048373822 -0.05452405 0.022446394 -0.023878189
0.06549956 -0.08160624 0.085560866 0.08220956 -0.0019527726 -0.09207446 -0.041954953 0.11378457
0.10757922 0.020047253 -0.0709176 -0.04339375 0.03424585 0.11722927 -0.06840846 -0.056554023
-0.05591798 -0.017536744 0.004894698 0.015834846 0.0077566127 -0.01941985 0.005442722 -0.09913741
-0.061131734 0.017369252 -0.051769227 -0.08117095 0.0057940427 0.08503945 0.013786926 0.030555684
-0.016579522 -0.115072444 0.041762397 -0.062643595 -0.07431714 -0.104790315 -0.1142629 -0.08617432
-0.02853054 -0.0025393842 -0.10095372 0.033668395 -0.08331243 -0.023900365 0.029225089 -0.09470413
0.06700877 0.04186511 -0.037657663 0.03474686 0.075517654 0.08432906 -0.025616953 -0.06216388
-0.073875405 0.029276887 -0.11292394 0.040231768 0.11374288 -0.07695485 0.07066902 -0.03814701
0.09617927 -0.05647159 -0.09992711 -0.08564217 0.035623733 -0.0036846593 0.100301385 -0.023813624
-0.07451491 -0.019401176 0.11521223 0.111655466 0.11198961 -0.10394053 -0.013862757 0.040040262
-0.050351337 0.09127256 0.014771489 -0.020433564 0.061372276 -0.07431694 -0.081046134 0.08582838
0.04876877 -0.013275455 0.047341224 0.11465791 -0.10113626 0.11584361 0.107312076 -0.06464847
-0.09501008 0.038442843 -0.04146099 -0.03577398 -0.10745124 0.05858372 0.019471588 0.058170315
-0.0686272 -0.09408705 -0.008667284 -0.055743214 -0.111893415 -0.09249698 -0.01753936 -0.09681345
-0.0294441 0.06306604 -0.079671346 0.11487779 0.05526716 0.039237525 -0.06445725 -0.08019374
-0.02245584 -0.054607373 -0.02722669 0.013007609 0.06453374 -0.09593683 -0.05305266 0.018254621
-0.03003982 0.08143424 -0.009167472 0.085894816 8.744859e-05 -0.07571047 0.086672485 -0.10081054
0.009405026 -0.06868415 -0.07505245 0.08816103 -0.050308425 -0.020195344 0.08995886 -0.027623387
-0.06650655 0.008696475 -0.03287404 -0.101077706 -0.110524185 -0.02259287 0.048755363 -0.05637248
0.09094892 -0.035315756 -0.04078225 0.039522182 -0.030816287 -0.052843116 0.09747121 0.098712064
-0.044656944 -0.07777014 -0.112128824 -0.05444731 -0.029159408 0.092260726 0.08516579 0.08342882
-0.083706565 0.019752113 -0.025062248 0.079708785 -0.019377254 -0.02065363 -0.0064040776 0.094618835
-0.10979139 -0.042505074 -0.07240133 -0.11105709 0.05946904 0.06159853 -0.09354526 0.014260512
0.07710117 0.062310364 0.047507145 -0.094983965 0.038679816 -0.05208354 0.03996208 0.00040034682
-0.104779735 -0.035705604 0.08195495 -0.059652187 -0.024532532 0.0688376 0.055835504 -0.05201553
-0.09836042 -0.06235293 -0.10676612 -0.014423301 0.10842371 0.05642049 -0.026092447 -0.090354525
0.0676852 0.10806534 -0.10693004 -0.07812701 0.044380244 0.037484083 0.026894562 -0.11254888
-0.061122973 -0.102690645 0.04347962 0.048506416 -0.10498203 0.009964771 0.0035860315 0.09420185
-0.025911879 -0.09103367 -0.080207616 -0.017444177 -0.09241553 -0.10443973 0.045800332 -0.061439518
00000000: 67f7 77bd e32a b0bd 3050 c5bd 875f fcbb
00000010: 3f81 7ebd f875 773d 1624 a9bc 6e2d c43d
00000020: af4b 5abd b3ac 32bd 2f97 0ebd 33c0 e83c
00000030: 6cc5 953d 7f2c cb3d 4d45 e0bd 6397 b53b
00000040: 1b13 66bd 60f5 a13c 7128 a83c 5afa 973d
00000050: a123 46bd 9c54 5fbd 80e1 b73c 319c c3bc
00000060: a224 863d 2c21 a7bd 893a af3d 7c5d a83d
00000070: 2df4 ffba 8991 bcbd f5d8 2bbd e207 e93d
00000080: 7e52 dc3d 233a a43c 3f3d 91bd a5bd 31bd
00000090: 6045 0c3d e615 f03d bc19 8cbd 31a5 67bd
000000a0: 400a 65bd 38a9 8fbc b463 a03b 14b8 813c
000000b0: 2f2b fe3b 6116 9fbc dc58 b23b 8e08 cbbd
000000c0: 4565 7abd f649 8e3c f80b 54bd f43c a6bd
000000d0: f4db bd3b 2a29 ae3d 8fe2 613c ea4f fa3c
000000e0: c7d1 87bc 1aab ebbd 0c0f 2b3d 494b 80bd
000000f0: 9633 98bd 4e9c d6bd ab02 eabd 297c b0bd
00000100: e1b8 e9bc cc6b 26bb d3c0 cebd dfe7 093d
00000110: b59f aabd b3ca c3bc 7469 ef3c 3df4 c1bd
00000120: e53b 893d c07a 2b3d ec3e 1abd b952 0e3d
00000130: 00a9 9a3d b7b4 ac3d a5da d1bc 8d9f 7ebd
00000140: fd4b 97bd 15d6 ef3c ab44 e7bd 11ca 243d
00000150: 07f2 e83d 819a 9dbd ebba 903d 0a40 1cbd
00000160: a3f9 c43d c14e 67bd 96a6 ccbd 2965 afbd
00000170: 31ea 113d 537a 71bb d06a cd3d ca14 c3bc
00000180: 469b 98bd 37ef 9ebc 64f4 eb3d 9fab e43d
00000190: cf5a e53d c6de d4bd 9e20 63bc 4201 243d
000001a0: 343d 4ebd 1ced ba3d 1e04 723c 4a64 a7bc
000001b0: 7f61 7b3d 7b33 98bd 84fb a5bd cac6 af3d
000001c0: c3c1 473d 4b81 59bc dfe8 413d c4d1 ea3d
000001d0: 8720 cfbd 6a3f ed3d 6fc6 db3d 6b66 84bd
000001e0: a594 c2bd 3e76 1d3d 00d3 29bd bd87 12bd
000001f0: 650f dcbd 7cf5 6f3d e182 9f3c ff43 6e3d
00000200: 6b8c 8cbd b6b0 c0bd 3901 0ebc ff52 64bd
00000210: 6028 e5bd 0f6f bdbd b4ae 8fbc 2146 c6bd
00000220: c134 f1bc c528 813d bb2a a3bd 0c45 eb3d
00000230: d15f 623d 87b7 203d 2a02 84bd 9e3c a4bd
00000240: 4ff5 b7bc fbab 5fbd 820a dfbc de1d 553c
00000250: 442a 843d 877a c4bd bf4d 59bd b78a 953c
00000260: 1216 f6bc ffc6 a63d 2a33 16bc 9fe9 af3d
00000270: 9b64 b738 170e 9bbd 5881 b13d c275 cebd
00000280: 8a17 1a3c 47aa 8cbd 19b5 99bd c58d b43d
00000290: 3510 4ebd b570 a5bc 5a3c b83d 714a e2bc
000002a0: 9634 88bd a97b 0e3c eea6 06bd d401 cfbd
000002b0: 815a e2bd af14 b9bc b4b3 473d d4e6 66bd
000002c0: 6d43 ba3d 41a7 10bd 4a0b 27bd 03e2 213d
000002d0: 7072 fcbc 0672 58bd fc9e c73d 8d29 ca3d
000002e0: 33ea 36bd f345 9fbd cca3 e5bd 2404 5fbd
000002f0: b6df eebc 31f3 bc3d 676b ae3d bbdc aa3d
00000300: 596e abbd 2fcf a13c 584f cdbc 5c3e a33d
00000310: 0cbd 9ebc cd31 a9bc 4cd9 d1bb 85c7 c13d
00000320: 4fda e0bd cd19 2ebd 2647 94bd e671 e3bd
00000330: cf95 733d bd4e 7c3d a894 bfbd eca4 693c
00000340: 38e7 9d3d 2739 7f3d da96 423d f486 c2bd
00000350: ba6e 1e3d 8d55 55bd 47af 233d a4e5 d139
00000360: c296 d6bd 0a40 12bd ffd7 a73d da55 74bd
00000370: 73f8 c8bc bafa 8c3d c5b3 643d 3d0e 55bd
00000380: 3071 c9bd c965 7fbd 32a8 dabd b64f 6cbc
00000390: 400d de3d 2c19 673d d4bf d5bc cb0b b9bd
000003a0: 8a9e 8a3d 5c51 dd3d 23fe dabd 0e01 a0bd
000003b0: 0fc8 353d e988 193d fc51 dc3c 0780 e6bd
000003c0: 155c 7abd 794f d2bd b017 323d aaae 463d
000003d0: d200 d7bd 4743 233c a003 6b3b e6ec c03d
000003e0: 2645 d4bc dc6f babd e443 a4bd 17e7 8ebc
000003f0: 5a44 bdbd 7fe4 d5bd 2199 3b3d 01a8 7bbd

weight f4 [8]
1.0006162 0.9951723 0.99900144 0.9963948 1.0016072 1.0033191 0.99743843 1.0003744
00000000: 3114 803f 9dc3 7e3f 8fbe 7f3f bb13 7f3f
00000010: aa34 803f c36c 803f 2058 7f3f 450c 803f

bias f4 [8]
0.000293673 -0.0004069511 -0.0015491064 -0.0011416717 0.0012074996 -0.00085202244 -0.00038487173 -0.0028373296
00000000: 1ff8 9939 0d5c d5b9 630b cbba 25a4 95ba
00000010: f744 9e3a 425a 5fba 9cc8 c9b9 7ef2 39bb

running_mean f4 [8]
-0.42728794 -0.04231964 -0.20596793 -0.054334916 0.08802986 -0.33072987 0.08410487 -0.19772089
00000000: 7cc5 dabe 5c57 2dbd 42e9 52be 4a8e 5ebd
00000010: 0049 b43d 6d55 a9be 2d3f ac3d 5877 4abe

running_var f4 [8]
0.10377796 0.11339058 0.07801194 0.07924662 0.054240033 0.09758998 0.2063245 0.09366766
00000000: 8a89 d43d 5239 e83d b9c4 9f3d 0d4c a23d
00000010: cc2a 5e3d 41dd c73d bb46 533e d5d4 bf3d

weight f4 [8, 8, 3, 3]
0.006663415 0.07205107 -0.09456455 -0.054897748 0.015904324 0.027294636 -0.053534996 -0.09750831
-0.112191655 0.09679295 0.0042660283 -0.05224169 -0.02589238 0.11714465 -0.01765228 -0.014122279
-0.038684554 -0.029648876 0.05250082 -0.08462149 -0.11078623 -0.08485341 0.023266254 -0.022641322
-0.06798507 -0.08677416 0.061035197 0.038648084 0.048237234 -0.014465115 -0.055883482 -0.08553288
0.025980346 0.068580635 0.07275873 0.09825809 0.08363045 -0.08663564 -0.107616775 -0.075231545
-0.014517014 -0.02139474 -0.07350861 0.080588065 -0.107753895 0.08625782 -0.093255736 -0.09314742
0.02416103 0.03103191 -0.10034849 -0.012959797 -0.010764185 0.0029117002 0.045629 0.003505046
-0.0076249614 0.07876062 -0.03632025 -0.06789606 0.08574054 -0.08543451 -0.047101952 0.05179996
-0.060831595 0.050282568 -0.06144403 0.06771045 -0.08454447 0.08700219 0.003074078 0.08330985
-0.02256583 0.07669683 0.077733286 0.07375438 0.05269384 0.0066111176 0.03808568 0.012208543
0.05780128 -0.034401264 -0.09782014 -0.09815067 -0.057427194 -0.1024519 0.07975524 -0.0759578
-0.0926553 0.0786227 -0.101054415 -0.05242062 0.061243244 -0.04720363 -0.0016208477 0.118023284
0.07462025 0.039374508 -0.02597241 0.087020785 0.1161804 0.056898817 0.034506403 0.088754654
0.038440377 -0.09172525 0.10148635 0.0113140205 -0.07569266 0.07827198 -0.010805171 0.0067762304
-0.07591671 0.059766803 0.09618013 -0.03997862 0.038874693 0.032153457 -0.0919167 -0.047794573
0.0070436304 -0.025127992 0.11477965 0.10043566 -0.11070433 0.008488034 -0.07956621 0.02325088
-0.008803492 -0.07523257 0.10135706 -0.07269022 0.04274021 -0.027039027 -0.083631344 -0.0028148366
0.0929903 0.036269847 0.061439525 -0.04972714 0.03819078 0.09401446 -0.08258722 0.019145714
0.105789974 0.11145994 -0.009506714 0.040269338 -0.09826837 0.07391965 -0.11494267 0.10064974
-0.062099587 0.033273965 -0.010104221 0.00032397133 0.024808828 -0.060987175 0.09932992 0.0216864
-0.074019834 -0.101586506 -0.07361148 -0.11559391 -0.00892946 0.010797948 0.11508895 0.03908942
-0.0896089 0.03427409 0.105038874 -0.046288896 -0.005882505 0.0017193728 0.03979149 0.056393243
0.094890945 0.070608824 0.07240149 0.08713133 -0.11034234 -0.04079408 -0.04591298 0.09677469
-0.0021717907 -0.10494489 -0.10626575 -0.059781548 -0.105377674 -0.029512694 0.0798337 -0.1001585
-0.064441234 -0.09152847 -0.0169072 0.0134188095 -0.039856054 0.06893665 0.042919286 -0.014422533
-0.037700698 0.07176486 0.05509961 0.102280244 -0.0810044 0.109060824 -0.0059020305 -0.068481304
-0.0641981 -0.08568488 -0.027052721 -0.051197976 -0.07206051 0.020984475 0.082647555 0.08696582
0.013439935 0.0652973 0.10820974 -0.0905551 0.072357796 0.070868716 -0.043344863 -0.037720867
-0.053520698 -0.089634664 -0.0873481 -0.06845878 0.025374819 -0.052163996 -0.02285925 0.09434537
-0.02309968 0.087837756 0.03302804 0.032843918 -0.041561835 0.07312663 0.07071392 0.05388073
-0.09995975 -0.05951819 -0.06856257 -0.10626846 -0.09980342 -0.015669141 0.10314021 0.06758415
-0.030890703 0.106002636 0.08777559 0.091824524 -0.012282935 -0.062726036 0.060941096 -0.016989453
00000000: c758 da3b 838f 933d 0fab c1bd 76dc 60bd
00000010: c949 823c 0099 df3c 8347 5bbd 70b2 c7bd
00000020: bdc4 e5bd 623b c63d 0aca 8b3b 62fb 55bd
00000030: 421c d4bc 89e9 ef3d 849b 90bc 2261 67bc
00000040: b273 1ebd 33e2 f2bc 1a0b 573d 084e adbd
00000050: e4e3 e2bd a0c7 adbd df98 be3c 4b7a b9bc
00000060: c23b 8bbd a7b6 b1bd 0b00 7a3d 744d 1e3d
00000070: 6894 453d 17ff 6cbc 14e6 64bd dd2b afbd
00000080: bcd4 d43c 0174 8c3d 8702 953d 8a3b c93d
00000090: 7146 ab3d 076e b1bd 2f66 dcbd ff12 9abd
000000a0: c5d8 6dbc 0644 afbc af8b 96bd 5b0b a53d
000000b0: 13ae dcbd f1a7 b03d ddfc bebd 13c4 bebd
000000c0: 5aed c53c a236 fe3c 8283 cdbd 5455 54bc
000000d0: 445c 30bc 39d2 3e3b 79e5 3a3d eab4 653b
000000e0: d0da f9bb 3f4d a13d 8bc4 14bd 170d 8bbd
000000f0: bc98 af3d 4af8 aebd faed 40bd 322c 543d
00000100: 8d2a 79bd 18f5 4d3d bcac 7bbd c7ab 8a3d
00000110: a725 adbd 342e b23d 7876 493b 5b9e aa3d
00000120: fadb b8bc 3a13 9d3d a132 9f3d 890c 973d
00000130: 7fd5 573d 13a2 d83b bbff 1b3d 5706 483c
00000140: 09c1 6c3d 57e8 0cbd ed55 c8bd 3803 c9bd
00000150: c738 6bbd 4dd2 d1bd b756 a33d c38f 9bbd
00000160: 10c2 bdbd f004 a13d 9ef5 cebd 01b7 56bd
00000170: 32da 7a3d 9858 41bd a072 d4ba 31b6 f13d
00000180: 80d2 983d 2a47 213d 17c4 d4bc f437 b23d
00000190: fdef ed3d bc0e 693d 9656 0d3d 00c5 b53d
000001a0: a873 1d3d 73da bbbd 13d8 cf3d 715e 393c
000001b0: c104 9bbd 0f4d a03d 2c08 31bc 240b de3b
000001c0: 387a 9bbd 09ce 743d 17fa c43d 9fc0 23bd
000001d0: 123b 1f3d 58b3 033d d33e bcbd 3ec4 43bd
000001e0: 41ce e63b 38d9 cdbc 9811 eb3d 36b1 cd3d
000001f0: f4b8 e2bd 6511 0b3c 9cf3 a2bd a178 be3c
00000200: 863c 10bc 8913 9abd 4a94 cf3d 9cde 94bd
00000210: 5c10 2f3d f380 ddbc e946 abbd 1f79 38bb
00000220: b371 be3d b18f 143d 03a8 7b3d b0ae 4bbd
00000230: ef6d 1c3d a78a c03d 7d23 a9bd 79d7 9c3c
00000240: 6aa8 d83d 1c45 e43d 0cc2 1bbc 76f1 243d
00000250: ed40 c9bd 2f63 973d 1067 ebbd 7321 ce3d
00000260: 235c 7ebd 484a 083d 2d8c 25bc b2da a939
00000270: e23b cb3c b0cd 79bd 7c6d cb3d ada7 b13c
00000280: b697 97bd 960c d0bd 9ec1 96bd 80bc ecbd
00000290: df4c 12bc e0e9 303c c1b3 eb3d 3a1c 203d
000002a0: df84 b7bd fd62 0c3d 9f1e d73d 6d99 3dbd
000002b0: 07c2 c0bb 945c e13a 67fc 223d 9afc 663d
000002c0: 2f56 c23d 5c9b 903d 3b47 943d e971 b23d
000002d0: 2afb e1bd b117 27bd 400f 3cbd cf31 c63d
000002e0: 9a54 0ebb 59ed d6bd dca1 d9bd 7fdd 74bd
000002f0: 40d0 d7bd 9bc4 f1bc da7f a33d e61f cdbd
00000300: c4f9 83bd 4773 bbbd f880 8abc 91da 5b3c
00000310: 1a40 23bd a92e 8d3d 22cc 2f3d 7d4c 6cbc
00000320: 0c6c 1abd 74f9 923d 21b0 613d 4e78 d13d
00000330: a3e5 a5bd 485b df3d d265 c1bb ed3f 8cbd
00000340: 4b7a 83bd 8e7b afbd ab9d ddbc f8b4 51bd
00000350: 7694 93bd a2e7 ab3c 1f43 a93d 231b b23d
00000360: 2c33 5c3c 97ba 853d 119d dd3d f474 b9bd
00000370: 5330 943d 9e23 913d 628a 31bd 3281 1abd
00000380: 8538 5bbd 6192 b7bd 90e3 b2bd 1e34 8cbd
00000390: dade cf3c eaa9 55bd 5243 bbbc 2538 c13d
000003a0: 8a3b bdbc 48e4 b33d 6948 073d 5887 063d
000003b0: be3c 2abd 6ac3 953d 76d2 903d 0ab2 5c3d
000003c0: b3b7 ccbd 58c9 73bd 886a 8cbd 47a3 d9bd
000003d0: bc65 ccbd 925c 80bc 2d3b d33d 8f69 8a3d
000003e0: 800e fdbc e917 d93d b0c3 b33d 7f0e bc3d
000003f0: 5d3e 49bc 8276 80bd 5f9d 793d 772d 8bbc

weight f4 [8]
0.9977604 1.0027996 1.0113223 1.0011755 1.0033976 1.0019927 1.0024579 1.0012392
00000000: 3a6d 7f3f bd5b 803f 0273 813f 8526 803f
00000010: 556f 803f 4c41 803f 8a50 803f 9b28 803f

bias f4 [8]
0.000293673 -0.0004069511 -0.0015491064 -0.0011416717 0.0012074996 -0.00085202244 -0.00038487173 -0.0028373296
00000000: 1ff8 9939 0d5c d5b9 630b cbba 25a4 95ba
00000010: f744 9e3a 425a 5fba 9cc8 c9b9 7ef2 39bb

running_mean f4 [8]
-0.3932563 0.38298905 -0.1725703 0.24451727 0.15909627 0.1185237 -0.085452005 0.35388196
00000000: e458 c9be 2417 c43e 45b6 30be bc62 7a3e
00000010: 22ea 223e 8ebc f23d 7601 afbd 0430 b53e

running_var f4 [8]
0.10146097 0.18792598 0.4648426 0.13309076 0.2650632 0.32185927 0.23707193 0.1935858
00000000: c5ca cf3d ab6f 403e d9ff ed3e f248 083e
00000010: 5db6 873e bdca a43e fcc2 723e 5b3b 463e

weight f4 [8, 8, 3, 3]
0.11119266 0.10660926 -0.0507804 -0.05555786 -0.019973734 -0.055773403 0.033655103 -0.030819397
0.057736028 -0.041558165 -0.01733144 0.04845248 0.023365358 -0.0274823 -0.061560933 0.034257155
-0.097061224 0.029199097 -0.030418534 0.048274204 0.11825772 -0.09440421 -0.027278012 -0.024764908
-0.0695441 -0.101470634 0.0003926165 -0.094952635 0.06664559 -0.0081882635 0.034113836 -0.008094957
-0.004351507 -0.02425042 -0.1004696 0.04371281 0.01535913 0.06425482 -0.03429269 0.007705282
0.095661186 0.112261385 0.09925478 -0.052432284 -0.022045594 -0.05391793 -0.06648601 -0.006373647
0.10976908 -0.030791547 0.10839749 0.058241922 0.0545342 0.02264206 0.098930724 -0.08393895
-0.0946163 0.098721914 -0.11257866 0.11242235 0.0461831 -0.030508785 0.025556317 -0.09403803
0.032193992 -0.07807036 -0.04687947 0.013138746 -0.035649426 -0.0023460612 0.04967433 0.1062727
-0.0853596 -0.009118399 0.11218829 0.10517892 -0.061157003 -0.019015068 0.120078355 0.0774991
-0.06182626 -0.032695204 -0.065338425 -0.04265771 0.014674239 0.040364474 0.019076675 -0.016236715
0.011257413 0.06522986 -0.0407512 0.1079454 0.016751708 0.03211153 0.10828387 0.029462812
-0.02469635 0.042434655 -0.0670132 -0.06598298 0.008973819 0.016880436 -0.016749907 0.0053177807
0.082253195 -0.104902685 0.045991343 0.0013095263 0.004451765 -0.00045949026 0.09652675 0.0134510305
-0.02855926 -0.08080018 0.046728294 -0.07049057 0.01893325 0.05815245 -0.0694405 0.04273772
-0.04192453 0.099658795 -0.10005026 -0.005796584 0.04509248 0.093316816 0.09018742 0.09986391
-0.045160744 -0.0678798 0.07639394 -0.03778463 -0.08231423 -0.06782929 -0.007657595 -0.09816159
0.09242107 0.0076780627 -0.07353959 0.06549918 -0.068080135 -0.0038070232 0.0721304 0.0416709
-0.042137567 -0.068424314 -0.040103447 -0.027496304 0.08396537 0.09282416 -0.06430469 0.021695476
-0.0818794 -0.0718951 -0.0769552 0.06029412 0.079422794 -0.08532276 0.03072733 0.09069629
0.115208834 -0.057428434 0.08983195 0.09125046 -0.10464723 -0.09028692 0.048856344 0.05308189
-0.08944054 0.0037994636 -0.014793905 -0.1103209 -0.061248314 0.03586952 -0.026363166 -0.0152600305
-0.11192619 -0.11627696 0.049466413 -0.11924546 -0.117995776 -0.08710077 0.09028992 -0.062866256
-0.091201074 0.025568107 -0.008522989 -0.06663351 0.058726616 -0.027993962 0.09955174 0.00084179785
-0.078981206 0.11191426 0.014881699 -0.09520785 -0.07473637 0.101021186 0.061176315 -0.009460399
-0.056551296 -0.019368937 -0.051368937 0.08431248 -0.010230698 -0.10655696 0.09441956 -0.02672063
-0.004077019 0.050254278 0.044282462 0.10657067 -0.087681346 -0.10772685 -0.008073044 -0.0125612505
-0.0162107 0.08002415 0.038520478 0.013611537 -0.0016679036 0.059370384 -0.041869674 0.085887186
0.08991957 -0.039890908 -0.023586374 0.002073723 -0.010926468 -0.07529247 -0.07780891 -0.022354688
-0.01816957 -0.062275846 0.011484089 -0.07215989 -0.10075601 -0.060723513 0.012408478 -0.105053425
0.0816532 -0.029364446 -0.047202814 0.031707775 -0.061036345 -0.050628398 0.021770194 0.11006753
-0.06737577 0.119154066 0.043406848 0.00056251034 -0.03593404 -0.10892977 0.0746335 0.077996254
00000000: fab8 e33d f555 da3d 1cff 4fbd a390 63bd
00000010: f59f a3bc a772 64bd efd9 093d f678 fcbc
00000020: 9d7c 6c3d e538 2abd aafa 8dbc 1c76 463d
00000030: b568 bf3c 8f22 e1bc 5127 7cbd 3b51 0c3d
00000040: 09c8 c6bd f232 ef3c 4a30 f9bc 2cbb 453d
00000050: 1a31 f23d ff56 c1bd 2376 dfbc c7df cabc
00000060: 236d 8ebd d6cf cfbd 18d8 cd39 8776 c2bd
00000070: 7c7d 883d 1128 06bc f3ba 0b3d b6a0 04bc
00000080: 1697 8ebb d1a8 c6bc 01c3 cdbd 340c 333d
00000090: dca4 7b3c 0898 833d 7e76 0cbd 977c fc3b
000000a0: 03ea c33d 4ce9 e53d 1746 cb3d 3cc3 56bd
000000b0: f698 b4bc 0cd9 5cbd d129 88bd 07da d0bb
000000c0: 9dce e03d 8e3e fcbc 81ff dd3d 158f 6e3d
000000d0: 415f 5f3d d77b b93c 319c ca3d 2fe8 abbd
000000e0: 31c6 c1bd b72e ca3d a48f e6bd b03d e63d
000000f0: 7e2a 3d3d 8fed f9bc 7b5b d13c 0397 c0bd
00000100: d9dd 033d 5ae3 9fbd b004 40bd e543 573c
00000110: 2205 12bd 60c0 19bb 4f77 4b3d 80a5 d93d
00000120: 04d1 aebd 5665 15bc f9c2 e53d 0c68 d73d
00000130: c47f 7abd 7dc5 9bbc a4eb f53d d9b7 9e3d
00000140: 883d 7dbd 68eb 05bd 27d0 85bd dab9 2ebd
00000150: 386c 703c 3855 253d b046 9c3c dc02 85bc
00000160: 0371 383c 3c97 853d bbea 26bd 7a12 dd3d
00000170: e13a 893c 6187 033d efc3 dd3d ff5b f13c
00000180: 0050 cabc f6cf 2d3d 373e 89bd 1622 87bd
00000190: ed06 133c d748 8a3c 1a37 89bc c740 ae3b
000001a0: 5d74 a83d 38d7 d6bd 6b61 3c3d 69a4 ab3a
000001b0: 1de0 913b bde7 f0b9 d1af c53d b661 5c3c
000001c0: 1cf5 e9bc 917a a5bd 2b66 3f3d 5c5d 90bd
000001d0: e719 9b3c 4331 6e3d d236 8ebd bf0d 2f3d
000001e0: 0eb9 2bbd e919 cc3d 27e7 ccbd 45f1 bdbb
000001f0: e4b2 383d e31c bf3d 2fb4 b83d 7385 cc3d
00000200: 79fa 38bd 9104 8bbd 6d74 9c3d 0ec4 1abd
00000210: 5d94 a8bd 15ea 8abd 90ec fabb f208 c9bd
00000220: 4247 bd3d 4298 fb3b ed9b 96bd 6f24 863d
00000230: 996d 8bbd 407f 79bb 1ab9 933d 1baf 2a3d
00000240: 7198 2cbd 0c22 8cbd 8343 24bd ee3f e1bc
00000250: 09f6 ab3d 981a be3d 2db2 83bd b6ba b13c
00000260: 63b0 a7bd bd3d 93bd b09a 9dbd f8f6 763d
00000270: 6ba8 a23d b3bd aebd e2b7 fb3c fabe b93d
00000280: 9cf2 eb3d 143a 6bbd d0f9 b73d 85e1 ba3d
00000290: 4951 d6bd 59e8 b8bd 971d 483d 656c 593d
000002a0: 9a2c b7bd 6c00 793b 2362 72bc edef e1bd
000002b0: 83df 7abd ebeb 123d 91f7 d7bc 3505 7abc
000002c0: 8f39 e5bd 9d22 eebd 4b9d 4a3d f736 f4bd
000002d0: c5a7 f1bd e361 b2bd ece9 b83d 06c0 80bd
000002e0: a1c7 babd 3574 d13c 02a4 0bbc 2677 88bd
000002f0: 528b 703d 9853 e5bc c8e1 cb3d 19ac 5c3a
00000300: e6c0 a1bd 4e33 e53d 5fd2 733c 55fc c2bd
00000310: 620f 99bd 32e4 ce3d 0494 7a3d caff 1abc
00000320: 55a2 67bd 9bab 9ebc 3c68 52bd 06ac ac3d
00000330: a89e 27bc 893a dabd 0b5f c13d 39e5 dabc
00000340: 8498 85bb 6ed7 4d3d 8761 353d b941 da3d
00000350: 4792 b3bd e59f dcbd cd44 04bc b4cd 4dbc
00000360: 4dcc 84bc b4e3 a33d a6c7 1d3d ed02 5f3c
00000370: 8f9d daba 5c2e 733d 897f 2bbd 9fe5 af3d
00000380: c027 b83d a664 23bd 3638 c1bc 4ce7 073b
00000390: ee04 33bc f032 9abd 475a 9fbd 2e21 b7bc
000003a0: 5ad8 94bc f514 7fbd c327 3c3c 90c8 93bd
000003b0: 2b59 cebd 38b9 78bd ee4c 4b3c 4026 d7bd
000003c0: cb39 a73d b58d f0bc bd57 41bd 03e0 013d
000003d0: 3f01 7abd b95f 4fbd 6857 b23c 166b e13d
000003e0: 4ffc 89bd 0c07 f43d 61cb 313d 6e75 133a
000003f0: 922f 13bd 9216 dfbd 73d9 983d 80bc 9f3d

weight f4 [8]
0.9981832 1.0039501 0.9974782 0.9955319 1.0010307 1.0007153 1.0028344 1.0027708
00000000: ef88 7f3f 7081 803f bb5a 7f3f 2edb 7e3f
00000010: c621 803f 7017 803f e15c 803f cb5a 803f

bias f4 [8]
0.0023729536 0.003186984 -0.0023551101 -0.0003033462 -0.001193937 -0.002075872 0.0029965749 -0.0008624812
00000000: 8e83 1b3b b8dc 503b 3158 1abb 700a 9fb9
00000010: e17d 9cba 5a0b 08bb 2f62 443b 2218 62ba

running_mean f4 [8]
0.043943517 0.2225215 -0.3936318 -0.14380969 0.07405767 -0.039373264 0.0047456706 0.415513
00000000: 1efe 333d addc 633e 1b8a c9be d942 13be
00000010: 8cab 973d dc45 21bd 9281 9b3b 1fbe d43e

running_var f4 [8]
0.28797215 0.17552343 0.3606229 0.22457182 0.2673935 0.48415047 0.43168378 0.2415777
00000000: 1671 933e 6abc 333e 91a3 b83e 28f6 653e
00000010: cde7 883e 92e2 f73e a805 dd3e 2560 773e
